runs/cartpole1.pt (torch, 2272 bytes, 4 tensors)

fc1.weight f4 [10, 4]
-0.22512387 -1.9897571 -1.1672802 -1.1440535 -0.108273946 -2.3885896 -1.1182449 -0.5552242
0.13382562 0.07585459 0.07014939 0.026360836 0.5412955 -0.5481711 -0.3306168 -0.68563616
0.10836823 -0.21896034 -0.32327038 -0.15296409 -3.431588 1.632618 8.017768 4.300171
0.0404846 -2.6447282 -0.84315634 -0.5830385 -0.24834049 -1.6163802 -0.840287 0.0008794832
-0.16021165 0.30631387 -0.21312144 0.35642087 1.1427364 -0.7678154 -1.1171494 -0.76152486
00000000: df86 66be 5cb0 febf 7069 95bf 5870 92bf
00000010: bbbe ddbd a7de 18c0 a622 8fbf 2c23 0ebf
00000020: 9509 093e a759 9b3d 7caa 8f3d aef2 d73c
00000030: 5892 0a3f f154 0cbf 9b46 a9be da85 2fbf
00000040: 2af0 dd3d 2437 60be b283 a5be 9ea2 1cbe
00000050: 239f 5bc0 a0f9 d03f c748 0041 009b 8940
00000060: 2ed3 253d 3a43 29c0 18d9 57bf 0342 15bf
00000070: f84c 7ebe 8ce5 cebf 0d1d 57bf 1e8d 663a
00000080: 860e 24be 2cd5 9c3e 823c 5abe cc7c b63e
00000090: 3045 923f 8d8f 44bf c0fe 8ebf 4bf3 42bf

fc1.bias f4 [10]
3.5426233 3.781909 -0.50225794 3.7500625 -0.45012444 -0.18344711 3.7121847 3.625428
-0.5804249 3.8144686
00000000: 57ba 6240 cc0a 7240 fa93 00bf 0601 7040
00000010: b676 e6be 8fd9 3bbe 6f94 6d40 0307 6840
00000020: ba96 14bf 4120 7440

output.weight f4 [2, 10]
3.2510498 2.9521153 0.11356968 2.9442072 -0.048965726 -4.686423 2.8138134 2.6152828
0.005066935 2.8955083 3.070652 2.7273545 0.0025236132 2.968227 -0.011946655 -3.7962937
3.1148992 2.5843918 -0.028621312 2.8286724
00000000: 3311 5040 75ef 3c40 3897 e83d e46d 3c40
00000010: 4990 48bd 2df7 95c0 8515 3440 cb60 2740
00000020: 8808 a63b 0250 3940 9085 4440 fa8c 2e40
00000030: 3463 253b 6ef7 3d40 e7bb 43bc 7af6 72c0
00000040: 825a 4740 ad66 2540 3e77 eabc f808 3540

output.bias f4 [2]
1.6948577 2.3393621
00000000: 19f1 d83f 1cb8 1540
