runs/cartpole1.pt (torch, 5664 bytes, 4 tensors)

fc1.weight f4 [128, 4]
0	0xbf02bd13	-0.51069754
1	0xbf774c49	-0.96600777
2	0xbfe5107f	-1.7895659
3	0xbf936fe4	-1.1518521
4	0xbf005aaa	-0.5013834
5	0xbf4acfc3	-0.7922327
6	0xc02beb1d	-2.6862252
7	0xbf945997	-1.1589841
8	0xbe8d6543	-0.2761632
9	0x3cac08f3	0.021000361
10	0xbe8d8419	-0.27639845
11	0x3d9c87fb	0.07643124
12	0x3dd32115	0.10309044
13	0xbe18f405	-0.14936836
14	0x3f0ea8d2	0.5572635
15	0x3e2bc20c	0.16773242
16	0x3e709064	0.2349258
17	0x3edf20f4	0.4357983
18	0x3ddafbed	0.10692582
19	0x3eb58503	0.35453042
20	0x3eec1c37	0.46115276
21	0x3ed047e1	0.4067984
22	0xbe42c753	-0.19021349
23	0x3f0e95c0	0.5569725
24	0xbe080ec1	-0.13286878
25	0x3e894596	0.26810902
26	0x3dbc7b3d	0.09203193
27	0x3f0fbfff	0.5615234
28	0xbeeeb8ed	-0.46625462
29	0x3ecb5eeb	0.39720854
30	0x3f3541d7	0.7080359
31	0x3d4a9c70	0.049465597
32	0xbe47304c	-0.19452018
33	0xbd0e3eb8	-0.034727782
34	0xbe17aed6	-0.14812788
35	0x3e730a1a	0.23734322
36	0x3dc3c7ed	0.09559617
37	0x3ec99046	0.39367884
38	0x3ea82adc	0.328452
39	0x3e787935	0.24264987
40	0x3ebe889f	0.3721361
41	0x3edc0f5a	0.42980462
42	0x3ed1746e	0.4090914
43	0xbcd33f49	-0.025787013
44	0xbe5da9ff	-0.2164688
45	0xbdeb6f7e	-0.11495875
46	0x3f123df5	0.5712579
47	0x3e855b9e	0.2604646
48	0x3eac47dc	0.33648574
49	0x3defe190	0.117129445
50	0xbfd3d82f	-1.6550349
51	0xbf6dd10d	-0.9289711
52	0xbf3e11a0	-0.74245644
53	0xbf35ba2a	-0.7098719
54	0xc010f0f6	-2.264707
55	0xbf6f0730	-0.9337034
56	0xbe4ff9e1	-0.20310165
57	0x3e5bfefd	0.21483989
58	0xbda3c178	-0.079958856
59	0x3d0e3a1e	0.034723394
60	0x3e7f4726	0.24929485
61	0x3e8a20a6	0.26978034
62	0x3f07c941	0.53041464
63	0xbe075990	-0.13217759
64	0xbdaa88c9	-0.08326871
65	0x3f346050	0.7045946
66	0x3e511d87	0.2042142
67	0x3e295523	0.16536383
68	0xbfb68e3e	-1.4262159
69	0xbdd9da08	-0.10637289
70	0x3fe38301	1.7774354
71	0x3f21fd28	0.6327691
72	0xbf8bb523	-1.0914654
73	0xbd921bfd	-0.071342446
74	0x3ff002d8	1.8750868
75	0x3f545e9a	0.8295685
76	0xbeee2569	-0.46512917
77	0x3f04213b	0.51613206
78	0x3f7f059f	0.9961795
79	0xbcbcebb6	-0.023061614
80	0x3eaba89e	0.33527082
81	0x3e80232d	0.25026837
82	0x3ea84ce2	0.32871157
83	0xbd563435	-0.052295882
84	0xbe3d6144	-0.18494135
85	0x3e2ca5ed	0.1686017
86	0x3dcb28d3	0.09919896
87	0x3eec1a69	0.461139
88	0x3d4d9bba	0.05019734
89	0x3ee58009	0.44824246
90	0xbe9d2938	-0.3069551
91	0x3e485833	0.19564895
92	0xbd61e536	-0.055150233
93	0x3c35da21	0.011099369
94	0x3ef5eed4	0.48033774
95	0xbc844407	-0.01614572
96	0x3de51f9a	0.11187668
97	0x3ea9e8da	0.33185464
98	0x3f039572	0.5139991
99	0xbe2ac118	-0.16675222
100	0xbede6589	-0.4343684
101	0x3f27d434	0.6555817
102	0x3f09e477	0.53864235
103	0x3e13031f	0.1435666
104	0x3dfd073d	0.12354896
105	0x3b069863	0.0020537607
106	0x3c894abd	0.01675927
107	0x3ddb3ccc	0.107049555
108	0x3f014e5d	0.505102
109	0xbe5fd430	-0.21858287
110	0x3ebe84d8	0.37210727
111	0x3e6141bf	0.21997736
112	0xbdd41c9d	-0.1035702
113	0xbfa2cf89	-1.2719585
114	0xbffda07c	-1.9814601
115	0xbf9a7478	-1.2066793
116	0xbe88ae89	-0.2669566
117	0x3edf32b0	0.4359336
118	0x3ede1001	0.43371585
119	0x3f05e303	0.5229952
120	0xbfba127d	-1.4536892
121	0xbefa0e02	-0.48838812
122	0x3fd1903e	1.6372144
123	0x3f6d81f5	0.92776424
124	0xbe895b86	-0.2682764
125	0x3d925ee5	0.07147006
126	0xbe590d22	-0.21196416
127	0x3e445da0	0.1917634
128	0x3dbd1bfa	0.09233852
129	0xbf9e5fb9	-1.2372962
130	0xc00939d2	-2.144154
131	0xbfb130d3	-1.3843025
132	0x3ead4aae	0.3384604
133	0xbe82272c	-0.2542051
134	0xbdc26e3d	-0.094936825
135	0xbda28114	-0.07934776
136	0xbf13e359	-0.5776878
137	0xbf485a15	-0.78262454
138	0xc02d9b39	-2.712599
139	0xbf65c6a8	-0.8975625
140	0x3e2d2197	0.16907345
141	0xbf839884	-1.0280919
142	0xbff5a06f	-1.9189585
143	0xbfad2d90	-1.352953
144	0x3da07adf	0.07835936
145	0x3e308f51	0.17242171
146	0x3ebca3d1	0.36843732
147	0xbe89a68b	-0.26884875
148	0xbe6866e4	-0.226955
149	0x3f0aa277	0.5415415
150	0xbccd8b14	-0.025090732
151	0x3d147d13	0.036252093
152	0xbe8be887	-0.27325842
153	0xbd0e36fc	-0.034720406
154	0x3ee56e14	0.44810545
155	0xbc5eae2e	-0.013591332
156	0x3e860115	0.261727
157	0x3ed80845	0.4219381
158	0x3b09995c	0.002099595
159	0xbd73951e	-0.05946838
160	0xbe86ffb8	-0.26366973
161	0x3eaeab65	0.3411514
162	0xbe942ce5	-0.28940502
163	0x3f07a964	0.52992845
164	0x3e913211	0.2835851
165	0x3e9b79a2	0.30366236
166	0x3ee52e57	0.44761917
167	0xbd7b83d3	-0.061405014
168	0x3eb17ed3	0.34667072
169	0xbe596df9	-0.21233357
170	0xbeb723c6	-0.3576948
171	0x3e476010	0.19470239
172	0x3e6c8259	0.23096599
173	0x3e0d0493	0.13771276
174	0x3eba8bf4	0.364349
175	0xbe6f77ae	-0.23385498
176	0xbe828da2	-0.25498682
177	0x3f231948	0.6371045
178	0x3f19db18	0.60099936
179	0x3de80aa4	0.113301545
180	0xbf009604	-0.50228906
181	0xbf687590	-0.90804386
182	0xc0039895	-2.0561879
183	0xbf9beccb	-1.2181638
184	0x3e9098c7	0.2824156
185	0x3da6a6b2	0.08137263
186	0x3f06ea7b	0.5270154
187	0x3d9d6518	0.07685298
188	0xbea0ed5c	-0.3143109
189	0x3f33903c	0.7014196
190	0xbea5763f	-0.32316777
191	0x3e62a5dc	0.22133583
192	0xbdd006fd	-0.10157583
193	0xbddcdab9	-0.107839055
194	0x3dba4d04	0.09096721
195	0x3e11dbd7	0.14244018
196	0xbe38491d	-0.1799664
197	0xbf7ff9f8	-0.999908
198	0xc00e194c	-2.220294
199	0xbf8280cc	-1.0195556
200	0xbd84700f	-0.06466686
201	0xbe80a628	-0.25126767
202	0xbc6a4147	-0.01429779
203	0x3d846fd0	0.06466639
204	0x3e9fae27	0.31187555
205	0x3eb6b8e1	0.35687926
206	0x3f10fda0	0.56637
207	0xbd8a846f	-0.06763541
208	0x3e6e7a03	0.23288731
209	0x3ed19114	0.40930998
210	0x3ea4553c	0.3209628
211	0x3da8a3fc	0.082344025
212	0x3e385dcd	0.18004532
213	0xbd8d0813	-0.06886306
214	0xbc81fd74	-0.015867926
215	0x3eb7b92a	0.35883456
216	0xbf1f5c47	-0.6225018
217	0xbf87ecd3	-1.0619148
218	0xc00f2b8e	-2.2370334
219	0xbf93a587	-1.153489
220	0xbe66250a	-0.22475067
221	0x3ee824ea	0.45340663
222	0xbd2d09d6	-0.04224571
223	0x3d6e2e08	0.058149368
224	0x3d90dda4	0.070735246
225	0x3d971420	0.073768854
226	0x3f4a33fe	0.78985584
227	0xbe41adf8	-0.1891402
228	0xbd7a4949	-0.061105046
229	0x3f19a64e	0.60019386
230	0xbc8ec61b	-0.017428448
231	0x3df12c4e	0.117760286
232	0xbecc9c3d	-0.3996295
233	0x3ea7b4d6	0.32755154
234	0x3f04ace4	0.5182631
235	0x3e145031	0.14483716
236	0x3eee04d9	0.46488073
237	0x3d112b9a	0.035441972
238	0x3e8dabc8	0.2767012
239	0xbe8f2caa	-0.27963763
240	0x3d734c0d	0.0593987
241	0x3da4d61b	0.0804865
242	0xbe4476cf	-0.19185947
243	0x3efcb6a4	0.49358094
244	0x3f7129ea	0.9420458
245	0xbdde8512	-0.10865225
246	0xbfb890ed	-1.4419228
247	0xbf90c7f9	-1.1311027
248	0xbfdc6dbb	-1.7220987
249	0xbef8a712	-0.48564965
250	0x3f95e0ae	1.1709192
251	0x3f689fc1	0.90868765
252	0xbeb8edef	-0.3611903
253	0xbf241ce2	-0.6410657
254	0xc014c9a4	-2.3248072
255	0xbfa86079	-1.3154441

fc1.bias f4 [128]
0	0xbed8b14d	-0.4232277
1	0xbe27ef29	-0.16399826
2	0x3fd8ba15	1.6931788
3	0x3fc31429	1.5240527
4	0x3fb810ca	1.4380124
5	0x3fdd1131	1.7270871
6	0x3fa6d6fa	1.3034356
7	0x3fa66381	1.2999116
8	0x3fb39ecd	1.4032837
9	0x3fb30d7f	1.3988494
10	0x3fd1f669	1.6403323
11	0x3fb5c617	1.4201077
12	0xbeba1fac	-0.3635229
13	0xbed5f1a3	-0.41785917
14	0xbef81123	-0.48450574
15	0x3fbf3d62	1.4940608
16	0x3faa4099	1.3300964
17	0xbedd1bf5	-0.43185392
18	0xbf0c0910	-0.5470133
19	0x3fad8d4c	1.3558745
20	0x3faff68d	1.3747116
21	0x3fb66e1f	1.4252356
22	0x3fd46a4c	1.6594939
23	0xbe802bbf	-0.25033376
24	0x3fdfa14d	1.74711
25	0x3fa583d8	1.293086
26	0x3fc07fdb	1.5039018
27	0x3fc5e4dd	1.5460469
28	0xbe6f2c66	-0.2335678
29	0x3fc27f20	1.5195045
30	0xbf5aa1f0	-0.85403347
31	0x3f9fea8e	1.2493455
32	0xbe639f67	-0.22228776
33	0x3fa95b77	1.3231038
34	0xbea9ca77	-0.3316228
35	0xbe7b509a	-0.24542466
36	0x3fd747bc	1.6818767
37	0x3fcfa157	1.6221112
38	0x3fbba20c	1.4658828
39	0x3fd84ba1	1.689808
40	0x3f9e74fa	1.2379448
41	0x3fc63105	1.548371
42	0x3fe18c69	1.7620975
43	0x3fd2f31b	1.648044
44	0x3fbd42c6	1.4786003
45	0xbecf0eeb	-0.4044107
46	0x3fc61dca	1.5477841
47	0x3fbce3f3	1.4757065
48	0x3fdbf89b	1.7185243
49	0xbdc8be47	-0.098019175
50	0x3fb3ab90	1.4036732
51	0x3fbb39d1	1.4627019
52	0x3faa3914	1.3298669
53	0x3fc32b7e	1.5247648
54	0xbeb0e2f7	-0.3454816
55	0x3fbebe4b	1.4901823
56	0x3fa9e152	1.3271887
57	0x3fbb0e28	1.4613695
58	0x3fc4f240	1.5386429
59	0x3fd4eebb	1.6635355
60	0x3fd2e50b	1.6476148
61	0xbe9ce349	-0.30642155
62	0xbf069e9c	-0.5258577
63	0xbef01ba2	-0.46896082
64	0x3fa1a17e	1.2627409
65	0x3fa581be	1.2930219
66	0xbd2c06a5	-0.041998524
67	0xbf185952	-0.5951129
68	0xbe9d800c	-0.30761755
69	0x3da72f6d	0.081633426
70	0x3fd56b69	1.6673404
71	0x3f9b4fed	1.2133766
72	0x3fabf5ae	1.343435
73	0x3fad57f7	1.354247
74	0xbeb246ed	-0.34819737
75	0x3fb54ed2	1.4164679
76	0x3fb1a08d	1.3877121
77	0x3fd608f1	1.6721479
78	0x3fc7a878	1.5598288
79	0x3faff6ee	1.3747232
80	0xbedb19b1	-0.42793038
81	0xbd1e0a94	-0.038584307
82	0x3fcd32c0	1.6031113
83	0x3f871c49	1.0555507
84	0x3f86117d	1.0474087
85	0x3fda57de	1.7058065
86	0x3fae6109	1.3623363
87	0xbeb74909	-0.3579791
88	0x3fa41003	1.2817386
89	0x3fd336af	1.6501063
90	0x3fc0af7b	1.5053552
91	0x3fa5620f	1.292055
92	0x3fe0c724	1.7560773
93	0x3fa3816b	1.277387
94	0x3fa7b7d5	1.3102976
95	0x3fdc906e	1.7231576
96	0x3faefcd8	1.3670912
97	0x3fbcefc7	1.4760674
98	0x3fcc2ed2	1.5951788
99	0x3fa23176	1.2671344
100	0xbe514e88	-0.20440114
101	0x3f8f2336	1.118262
102	0x3fd54ccb	1.666406
103	0x3f9d03c6	1.2266777
104	0xbe75d1c4	-0.240058
105	0xbf16024f	-0.5859727
106	0x3fe18695	1.7619196
107	0x3fd10e18	1.6332426
108	0x3d9b8f51	0.07595695
109	0xbe0404f8	-0.1289252
110	0x3fabef28	1.343236
111	0x3fa86225	1.3154951
112	0x3fc4d8d8	1.5378675
113	0xbe2643fd	-0.16236873
114	0xbe9c98ed	-0.30585423
115	0xbec1f396	-0.37881154
116	0xbe8b02db	-0.27150616
117	0xbf215eeb	-0.6303546
118	0x3fe2db91	1.7723256
119	0x3fb3975e	1.4030569
120	0x3fba2662	1.4542964
121	0x3fbf37d4	1.4938912
122	0xbf05d77b	-0.5228192
123	0xbe853c06	-0.26022357
124	0xbf02f73d	-0.51158506
125	0xbef82b60	-0.48470592
126	0xbe5a6908	-0.21329129
127	0x3fc7f288	1.562089

output.weight f4 [2, 128]
0	0xbf8bae56	-1.0912578
1	0xbf1e9e48	-0.6196027
2	0x3f59e1fd	0.85110456
3	0x3f540d45	0.8283275
4	0x3f785c02	0.9701539
5	0x3f5be79e	0.85900295
6	0x3f089919	0.5335861
7	0x3f4c5f13	0.7983257
8	0x3f3b5a1d	0.73184377
9	0x3f80adfb	1.0053095
10	0x3f7db15b	0.9909875
11	0x3f12cfbd	0.57348233
12	0xbf2ef180	-0.6833725
13	0xbf8dc182	-1.1074679
14	0x3d72cd0e	0.059277587
15	0x3f597c08	0.8495488
16	0x3f7ec8a6	0.99524915
17	0xbf90129f	-1.1255683
18	0xbf884b71	-1.0648023
19	0x3f373606	0.7156681
20	0x3f7c1e4d	0.98483735
21	0x3f2bf218	0.6716628
22	0x3f781268	0.96903086
23	0x3cc4afda	0.024009634
24	0x3f680f39	0.9064823
25	0x3f55e74b	0.8355605
26	0x3f6b147c	0.9182813
27	0x3f44bd59	0.7685142
28	0xbf8cd782	-1.1003268
29	0x3f4826df	0.7818431
30	0xbf808a71	-1.0042249
31	0x3f725aa3	0.9466955
32	0xbf8548ac	-1.0412803
33	0x3f78ad71	0.9713965
34	0xbf800ce2	-1.0003932
35	0xbf8933df	-1.0718955
36	0x3f793480	0.97345734
37	0x3f6c9f00	0.92430115
38	0x3f517eb6	0.8183397
39	0x3f6b4afd	0.919113
40	0x3f26a2fd	0.6509245
41	0x3f67bd4f	0.90523237
42	0x3f5d16c0	0.8636284
43	0x3f664847	0.89954036
44	0x3f6343c2	0.88775265
45	0xbf9da750	-1.2316685
46	0x3f58a2f8	0.8462367
47	0x3f7dbed4	0.99119306
48	0x3f4cd89c	0.8001802
49	0xbf47e97a	-0.7809063
50	0x3f537eee	0.82615554
51	0x3f3879a5	0.72060615
52	0x3f91f173	1.140181
53	0x3f381d44	0.71919656
54	0xbf96686d	-1.1750618
55	0x3f5d63f6	0.86480653
56	0x3f258015	0.6464856
57	0x3f858b30	1.0433102
58	0x3f70dd0a	0.9408728
59	0x3f6fb53a	0.93635905
60	0x3f4cb824	0.79968476
61	0xbf494e08	-0.7863469
62	0xbf8bfc21	-1.0936319
63	0xbf87436b	-1.0567449
64	0x3f5fe57d	0.87459546
65	0x3f7cadb9	0.9870258
66	0xbfbf2798	-1.4933958
67	0xbe82728b	-0.25478014
68	0xbf6a7022	-0.9157735
69	0xbdc92ddc	-0.098232
70	0x3f7abe46	0.97946584
71	0x3f26ef45	0.65208846
72	0x3f5a7c69	0.85346085
73	0x3f8d9835	1.1062075
74	0xbf35d196	-0.7102293
75	0x3f44fe45	0.76950485
76	0x3f7503c5	0.95708877
77	0x3f3796ec	0.71714664
78	0x3f42a9fe	0.7604064
79	0x3f2e1a02	0.68008435
80	0xbf93f148	-1.1558008
81	0xbf48bb4f	-0.7841081
82	0x3f2d9068	0.6779847
83	0x3ec3c67b	0.38237366
84	0x3f18d235	0.5969575
85	0x3f8040d1	1.001978
86	0x3f50e444	0.81598306
87	0xbee60db1	-0.4493232
88	0x3f459bcd	0.7719086
89	0x3f7f6612	0.9976512
90	0x3f654139	0.89552647
91	0x3f1946d0	0.59873676
92	0x3f671f24	0.9028189
93	0x3f25a2c3	0.6470148
94	0x3f25ec84	0.6481402
95	0x3f562ee6	0.8366531
96	0x3f47e5b5	0.7808488
97	0x3f6af34e	0.91777503
98	0x3f5a17f5	0.85192806
99	0x3f4cc705	0.7999118
100	0xbecf3bc8	-0.40475297
101	0x3ea52e7b	0.32262024
102	0x3f840e40	1.0316849
103	0x3f1bd195	0.6086667
104	0xbfa46c11	-1.2845479
105	0x3d973abc	0.073842496
106	0x3f4ed625	0.8079551
107	0x3f515744	0.8177378
108	0xbf147d86	-0.58004034
109	0xbf6093bb	-0.8772542
110	0x3f7fe8c4	0.9996455
111	0x3f5326fb	0.82481354
112	0x3f20b190	0.6277094
113	0xbedaed72	-0.4275928
114	0x3d026d12	0.0318423
115	0x3d078360	0.033084273
116	0xbf906d3c	-1.1283336
117	0xbf906708	-1.1281443
118	0x3f80dfd2	1.0068305
119	0x3f7585a4	0.95907044
120	0x3f743785	0.95397216
121	0x3f65023b	0.8945653
122	0xbf4f8b48	-0.810719
123	0xbf9ba2bd	-1.2159039
124	0xbf835973	-1.0261673
125	0xbf1bb6d5	-0.60825855
126	0xbf366648	-0.7124982
127	0x3f65026a	0.8945681
128	0xbf605101	-0.876236
129	0xbf7b0fcc	-0.9807098
130	0x3f59aaca	0.8502623
131	0x3f54f9c8	0.83193636
132	0x3f751117	0.957292
133	0x3f6f0163	0.9336149
134	0x3f3fba3d	0.7489355
135	0x3f67f961	0.90614897
136	0x3f46094c	0.77357936
137	0x3f854630	1.0412045
138	0x3f445d4d	0.76704866
139	0x3f3ef890	0.74598026
140	0xbf2a8ab5	-0.666179
141	0xbf5e8d52	-0.8693439
142	0xbc67bd02	-0.014144184
143	0x3f4d4c92	0.8019496
144	0x3f57e3fd	0.8433226
145	0xbf893965	-1.072064
146	0xbf79ba08	-0.97549486
147	0x3f46e503	0.77693194
148	0x3f6741f2	0.90335
149	0x3f577561	0.8416348
150	0x3f528343	0.8223154
151	0xbca45238	-0.020058736
152	0x3f67b29f	0.9050693
153	0x3f5a1d5e	0.8520106
154	0x3f68872b	0.9083125
155	0x3f56350e	0.83674705
156	0xbfa68963	-1.3010677
157	0x3f76e01d	0.9643572
158	0xbf949485	-1.1607825
159	0x3f836a0f	1.0266742
160	0xbf93253b	-1.1495737
161	0x3f60ee11	0.8786326
162	0xbf90810f	-1.1289386
163	0xbf8c9f8d	-1.0986191
164	0x3f587035	0.84546214
165	0x3f57a3ce	0.8423432
166	0x3f56ddfb	0.83932465
167	0x3f47d5cb	0.780606
168	0x3f593015	0.8483899
169	0x3f5316af	0.8245649
170	0x3f413acc	0.7548034
171	0x3f4e42ff	0.8057098
172	0x3f7ae2b9	0.980022
173	0xbf8758e1	-1.0573999
174	0x3f6d8322	0.9277822
175	0x3f77f9a2	0.96865284
176	0x3f5ed5e7	0.8704514
177	0xbfa73685	-1.3063513
178	0x3f472a23	0.7779867
179	0x3f34ca99	0.7062164
180	0x3f811191	1.0083486
181	0x3f5ac58e	0.85457695
182	0xbfb3f35e	-1.4058645
183	0x3f558f24	0.8342154
184	0x3f15a9bd	0.58462125
185	0x3f6bd9ce	0.9212922
186	0x3f65d210	0.89773655
187	0x3f5fb229	0.87381226
188	0x3f6a048e	0.914132
189	0xbf63c8a3	-0.8897802
190	0xbf80fcaa	-1.0077107
191	0xbf426f01	-0.7595063
192	0x3f76340d	0.96173173
193	0x3f66362c	0.8992641
194	0xbf37ee45	-0.71847945
195	0xbf06374e	-0.5242814
196	0xbf3e3b2f	-0.74309057
197	0xbf5ce66a	-0.86289084
198	0x3f622db6	0.88351
199	0x3f21899d	0.63100606
200	0x3f735d7f	0.9506454
201	0x3f5e893c	0.86928153
202	0xbf4537df	-0.7703838
203	0x3f331b03	0.6996309
204	0x3f5d642d	0.8648098
205	0x3f490e68	0.7853761
206	0x3f5b1727	0.855822
207	0x3f36f74a	0.71471083
208	0xbf3c463a	-0.7354466
209	0xbfb9926a	-1.4497807
210	0x3f3eb945	0.7450145
211	0x3f1fc058	0.6240287
212	0x3f1aaab1	0.60416704
213	0x3f515658	0.81772375
214	0x3f52e276	0.823768
215	0xbe745c7e	-0.23863408
216	0x3f74e46f	0.9566106
217	0x3f6590b2	0.8967391
218	0x3f5d45df	0.8643474
219	0x3f6e7611	0.93148905
220	0x3f577974	0.841697
221	0x3f57f454	0.8435719
222	0x3f4ccff3	0.80004805
223	0x3f5324f9	0.8247829
224	0x3f675089	0.9035726
225	0x3f5a5f0e	0.8530129
226	0x3f614977	0.88002723
227	0x3f3d2762	0.7388822
228	0xbe82a3d8	-0.25515628
229	0x3f232eb0	0.63743114
230	0x3f322256	0.6958364
231	0x3f57f3c4	0.8435633
232	0xbf6f9634	-0.93588567
233	0xbe17b9f3	-0.14817028
234	0x3f6c41dc	0.92287993
235	0x3f6572c8	0.8962827
236	0xbfab58ff	-1.3386534
237	0xbfad0d24	-1.3519635
238	0x3f6a350b	0.9148719
239	0x3f270dc2	0.6525537
240	0x3f4542a3	0.77054805
241	0xbc09ed32	-0.008418368
242	0x3c93673e	0.017993566
243	0xbd8a81da	-0.067630485
244	0xbf67b146	-0.9050487
245	0xbf91e0be	-1.1396711
246	0x3f592232	0.848178
247	0x3f5970ae	0.8493756
248	0x3f582cb9	0.8444324
249	0x3f6bbce2	0.9208509
250	0xbf83e698	-1.0304747
251	0xbf558d45	-0.83418685
252	0xbf2145b6	-0.62996995
253	0xbf528d8d	-0.8224724
254	0xbfaaa1bc	-1.3330607
255	0x3f767ae0	0.9628124

output.bias f4 [2]
0	0x3f5548b1	0.83314043
1	0x3f5728ae	0.8404645
